app/utils/lstm_stock_model.pth (torch, 339982 bytes, 13 tensors)

lstm.weight_ih_l0 f4 [256, 1]
0.06872444 0.10212475 -0.029305128 -0.023166008 0.08419152 -0.0734261 -0.11474857 0.07995502
0.04711861 0.10828554 0.09557189 0.06552972 0.105074316 -0.018998802 0.090647414 -0.0020308318
-0.058782186 0.10389787 -0.121050075 -0.07114425 0.09316551 0.045559715 -0.11349992 0.055706203
-0.061009742 0.029770456 -0.015473667 -0.05720669 -0.060004517 -0.014468314 0.021823796 0.08493257
0.012506151 0.1341865 -0.042598955 0.030371452 -0.093264565 -0.097353004 -0.11388756 0.024360057
-0.12416055 0.06948941 -0.11173345 -0.050930455 0.06310377 -0.02451123 0.11545474 0.03645994
0.07936523 -0.043561984 0.099484 -0.025540758 -0.033659346 -0.050916985 0.08759461 -0.027930038
-0.09975938 0.08382836 0.06662587 0.06849023 0.050630137 0.11986539 0.050639987 0.041472193
0.102701284 -0.10706142 -0.035652637 -0.07504438 0.10749352 -0.0689781 0.10456471 -0.087427035
-0.020167764 0.018075861 0.07391501 0.059233893 0.03922073 -0.03045246 0.08168586 0.0028643787
0.022439016 -0.056908477 -0.08013023 0.007606502 0.031280514 -0.107298 0.07802923 -0.02538288
0.028213104 0.020103026 0.09326235 0.03552557 -0.09217369 0.079402216 -0.08456399 0.11887631
-0.039039355 -0.017376343 0.06549089 0.056803 -0.033530377 0.020723665 -0.10096998 0.11418333
0.046331856 -0.11194713 -0.00027330403 0.09757362 0.11986889 0.033309713 -0.054634675 -0.004092281
-0.075114384 0.05594695 -0.10406772 -0.042187594 0.082991295 0.015942441 0.1254791 0.09107908
0.111321785 0.094782524 -0.02821516 0.07627562 -0.114738956 0.058862414 -0.061348043 0.107713826
0.07224646 0.025404967 -0.0948561 0.12049339 0.096716076 0.059148055 0.046560075 0.053461567
-0.0101436805 -0.018020246 0.057413697 0.022223348 -0.09460779 0.08435101 0.10173082 0.086003214
0.040766165 0.11359764 -0.06742006 -0.099569626 -0.054096326 0.066224605 -0.12683901 -0.064025044
0.04443543 -0.060129084 -0.061063297 -0.05281785 0.09099576 0.09636046 -0.030807298 0.06355446
0.0926814 0.08799097 0.05064605 0.10162858 -0.011979821 -0.10948928 -0.036666054 -0.019073356
-0.095072046 -0.00034609265 0.10076916 0.005879254 -0.0028940015 -0.032705333 -0.03580088 0.08449959
0.01311413 0.0977997 -0.054032322 0.10276779 -0.005344322 -0.10959673 0.05799774 0.038715426
0.10982058 0.05372409 -0.03866348 0.009495741 -0.11023712 -0.068382 0.07970231 0.08933205
0.08626876 0.06116826 -0.070303366 0.099708326 0.010740852 -0.018970167 0.0768869 -0.034442928
-0.099872865 -0.09313579 0.08394803 -0.12406722 0.07017512 0.075636104 0.07381187 -0.11036609
0.04448589 0.042338468 -0.0045881695 0.12516919 -0.035099193 0.116574496 -0.053197116 0.077487424
0.04559071 0.0838202 -0.013284311 0.041260343 0.047532815 -0.042888176 0.015607201 -0.118747585
0.05748124 -0.0028136435 -0.0016068257 0.032471914 -0.07525012 -0.10534346 -0.055463105 -0.079413526
-0.011287341 -0.012310959 0.029773174 -0.11924422 -0.10612993 -0.06563937 -0.04464884 -0.062364224
0.011910017 0.11221942 0.024093723 -0.041817203 0.06188969 0.03990852 0.09527215 0.0640621
-0.11416056 0.006666014 0.1039848 0.05606295 -0.099895746 -0.056469686 -0.010999917 0.05243898
00000000: 66bf 8c3d c826 d13d 4f11 f0bc a4c6 bdbc
00000010: 9b6c ac3d 6c60 96bd 4c01 ebbd 75bf a33d
00000020: 72ff 403d cfc4 dd3d 32bb c33d 7234 863d
00000030: 3431 d73d 60a3 9bbc 5aa5 b93d b417 05bb
00000040: 97c5 70bd 68c8 d43d 1ae9 f7bd 14b4 91bd
00000050: 8fcd be3d d39c 3a3d a572 e8bd 302c 643d
00000060: 5ae5 79bd 2ce1 f33c 4385 7dbc 9051 6abd
00000070: 4cc7 75bd 820c 6dbc d1c7 b23c 21f1 ad3d
00000080: 99e6 4c3c 3068 093e 3e7c 2ebd 8dcd f83c
00000090: 7e01 bfbd 0361 c7bd e23d e9bd be8e c73c
000000a0: e347 febd 7750 8e3d 82d4 e4bd 749c 50bd
000000b0: 8d3c 813d c6cb c8bc 8973 ec3d 0557 153d
000000c0: 3d8a a23d 0d6e 32bd 44be cb3d da3a d1bc
000000d0: 62de 09bd 548e 50bd ce64 b33d 89cd e4bc
000000e0: a54e ccbd 34ae ab3d 2573 883d 9b44 8c3d
000000f0: 8c61 4f3d fc7b f53d e06b 4f3d bfde 293d
00000100: 0d55 d23d 0543 dbbd 8008 12bd deb0 99bd
00000110: 9025 dc3d 6444 8dbd 0626 d63d f20c b3bd
00000120: de36 a5bc d413 943c c160 973d 3d9f 723d
00000130: eba5 203d 7077 f9bc eb4a a73d 4db8 3b3b
00000140: 07d2 b73c dd18 69bd 511b a4bd f73f f93b
00000150: ff1f 003d 0ebf dbbd cacd 9f3d c2ef cfbc
00000160: 2b1f e73c 1aaf a43c 5500 bf3d 4383 113d
00000170: 8fc5 bcbd a19d a23d e32f adbd 6c75 f33d
00000180: bbe7 1fbd d558 8ebc 1620 863d 43aa 683d
00000190: 2657 09bd adc4 a93c 59c9 cebd f3d8 e93d
000001a0: 79c6 3d3d 8944 e5bd 3f4a 8fb9 aed4 c73d
000001b0: d27d f53d c46f 083d 9cc8 5fbd 8b18 86bb
000001c0: 92d5 99bd a128 653d 7521 d5bd e6cc 2cbd
000001d0: 57f7 a93d b999 823c 987d 003e ab87 ba3d
000001e0: adfc e33d 571d c23d 7b23 e7bc 6436 9c3d
000001f0: 42fc eabd b719 713d 1648 7bbd 1199 dc3d
00000200: f4f5 933d 141e d03c ea43 c2bd 3dc5 f63d
00000210: 1413 c63d 3b45 723d c7b5 3e3d 84fa 5a3d
00000220: ae31 26bc 329f 93bc a02a 6b3d bd0d b63c
00000230: bbc1 c1bd 39c0 ac3d 4058 d03d 7422 b03d
00000240: 6cfa 263d e1a5 e83d 8713 8abd 29eb cbbd
00000250: 1c94 5dbd c4a0 873d 16e2 01be 901f 83bd
00000260: ed01 363d ea49 76bd 821d 7abd 8857 58bd
00000270: fc5b ba3d a258 c53d 965f fcbc d728 823d
00000280: bfcf bd3d 9c34 b43d 3c72 4f3d a522 d03d
00000290: 0347 44bc ea3b e0bd 252f 16bd ba3f 9cbc
000002a0: 22b5 c2bd c573 b5b9 1060 ce3d c2a6 c03b
000002b0: 4aa9 3dbb 07f6 05bd f2a3 12bd 1f0e ad3d
000002c0: a6dc 563c 364b c83d ff50 5dbd eb77 d23d
000002d0: 6c1f afbb 4074 e0bd 0a8f 6d3d 1194 1e3d
000002e0: 9de9 e03d cb0d 5c3d 995d 1ebd 0694 1b3c
000002f0: 00c4 e1bd dd0b 8cbd f73a a33d b9f3 b63d
00000300: adad b03d 928b 7a3d 36fb 8fbd e133 cc3d
00000310: 66fa 2f3c 5367 9bbc e176 9d3d 0714 0dbd
00000320: 258a ccbd fabd bebd f2ec ab3d f416 febd
00000330: f9b7 8f3d 1ae7 9a3d ad2a 973d 9e07 e2bd
00000340: d636 363d 1a6b 2d3d 5b58 96bb 5a2c 003e
00000350: 2cc4 0fbd 9cbe ee3d 38e5 59bd bab1 9e3d
00000360: 53bd 3a3d eda9 ab3d 70a6 59bc 9b00 293d
00000370: c5b1 423d 83ab 2fbd 58b5 7f3c ef31 f3bd
00000380: 7371 6b3d 1b65 38bb 209c d2ba 4501 053d
00000390: bc1c 9abd 50be d7bd 482d 63bd 8fa3 a2bd
000003a0: 8aee 38bc e8b3 49bc dfe6 f33c 5036 f4bd
000003b0: a65a d9bd ef6d 86bd b4e1 36bd a171 7fbd
000003c0: 3b22 433c 4cd3 e53d 3360 c53c 8448 2bbd
000003d0: 0b80 7d3d 1e77 233d 0c1e c33d fe32 833d
000003e0: 03cd e9bd 946e da3b fcf5 d43d 44a2 653d
000003f0: 2496 ccbd c24c 67bd ff38 34bc 42ca 563d

lstm.weight_hh_l0 f4 [256, 64]
-0.05518383 -0.09315912 -0.09403294 -0.05371314 0.022042068 -0.0633464 -0.011133846 -0.079680815
-0.12167013 0.07473631 0.09683448 -0.10218467 -0.045859914 0.034858357 -0.09030284 0.030663596
0.029430984 0.080400795 -0.067179255 0.03656225 -0.11807647 0.04018365 -0.07783202 -0.09125508
-0.118827574 -0.06361469 0.011303374 0.09080634 -0.012747021 -0.055887707 -0.008895838 -0.11236224
0.051293027 0.043433987 0.040956788 0.09500768 0.080467686 -0.017955642 0.12611955 0.11680229
-0.061708298 0.055052806 0.00063922076 -0.09741064 -0.10764188 -0.04055606 -0.061233737 -0.027720615
0.0090054665 -0.045806866 0.0826582 0.09849976 -0.07774445 0.056293216 -0.054929998 -0.04071706
0.047413077 0.052555006 -0.098235436 -0.0053551174 0.08644624 0.10567566 0.038981263 0.046044428
-0.054468293 -0.11092772 0.07323646 0.13616847 -0.09704744 -0.06344548 0.0075529176 -0.13059859
0.114157245 0.09123966 0.0019276751 0.035604004 0.046763748 -0.083962515 -0.03727688 0.056312036
0.04995401 -0.07886502 0.00042864977 -0.08446777 0.008612026 -0.07490267 -0.10195848 -0.10234113
0.08907589 -0.06190801 0.063924044 0.031218665 0.023325145 0.09577225 -0.039359227 0.027407149
0.10487753 -0.07925773 0.06301828 0.13133755 -0.022765499 0.11130467 -0.025266264 -0.10873294
-0.10146532 0.02381345 -0.04181033 0.0046582622 -0.034666695 0.032712582 0.011863008 0.1032691
-0.0933387 -0.10039826 0.006466649 0.056124866 -0.08191332 0.030824944 0.024293808 -0.07234275
-0.106716454 -0.0641716 0.012752611 0.12220891 -0.02922671 -0.13314743 0.017965943 -0.06483358
-0.073448904 0.038068406 0.0830715 -0.08448443 0.09590305 -0.06944856 -0.09449186 0.08143211
-0.07855446 -0.063974366 -0.062503785 0.08015431 -0.028135259 0.106306 0.089007735 -0.024919799
-0.082281604 0.054874916 -0.067857906 -0.01344868 0.12594303 -0.10021412 -0.050656006 -0.11276058
0.0013319578 0.0632209 -0.003916287 -0.06583309 -0.056448005 -0.11494509 0.09027848 0.035383947
0.05671314 -0.010700755 0.104044884 0.038199984 -0.07640804 0.06359724 -0.016007392 -0.06812866
-0.024488747 0.014893269 0.07858196 0.08758365 -0.03232313 0.0051738 0.12002713 -0.09366164
0.060300034 0.0071518086 0.0546445 -0.08738347 -0.09935382 0.029266957 -0.098451525 -0.098838866
-0.10812791 -0.03960428 0.053346716 -0.10692108 -0.08868298 0.053762898 -0.08656576 0.13484588
-0.06911284 -0.08039654 -0.06631836 0.13424256 0.0491197 0.105792776 0.117779136 0.012272758
-0.112165414 0.108230114 0.030342123 0.0290959 0.12304234 -0.04833637 -0.040860306 0.059740033
0.10600083 -0.01261987 -0.005909351 0.051942617 0.03923172 -0.060858853 -0.071813084 0.02333688
0.008011741 0.037548635 -0.030374955 -0.049850784 -0.04482588 0.02857828 0.045410015 0.06662747
0.092948146 -0.05440625 0.06764234 -0.08329272 -0.04871652 -0.03867497 0.030994378 -0.040589754
0.007455899 -0.1364978 0.033466514 -0.09415924 0.1309106 0.022715721 0.047338825 -0.0011723334
0.07850979 0.079917565 0.059365667 0.045656323 0.05809394 0.08520187 0.05511627 -0.024187313
0.117217995 -0.12969619 0.032958943 -0.099354625 0.0706581 -0.0977178 -0.018128548 0.0044847126
00000000: 7108 62bd 35ca bebd 5894 c0bd 4f02 5cbd
00000010: 9191 b43c c2bb 81bd bc6a 36bc b22f a3bd
00000020: 302e f9bd 5a0f 993d 2851 c63d 3246 d1bd
00000030: 9bd7 3bbd a3c7 0e3d b2f0 b8bd 3932 fb3c
00000040: 3f19 f13c 2ca9 a43d 4795 89bd 4cc2 153d
00000050: 14d2 f1bd 9c97 243d 6566 9fbd f2e3 babd
00000060: df5b f3bd 6b48 82bd c931 393c adf8 b93d
00000070: e2d8 50bc 82ea 64bd d9bf 11bc 2d1e e6bd
00000080: a318 523d d6e7 313d 4ec2 273d 6393 c23d
00000090: 3ecc a43d b617 93bc 7c25 013e 0a36 ef3d
000000a0: d7c1 7cbd 0d7f 613d 6191 273a 3b7f c7bd
000000b0: 5973 dcbd 1c1e 26bd 3ad0 7abd 5816 e3bc
000000c0: aa8b 133c fb9f 3bbd b448 a93d 3eba c93d
000000d0: 7b38 9fbd b793 663d 47fe 60bd efc6 26bd
000000e0: 3734 423d eb43 573d a92f c9bd fb79 afbb
000000f0: ba0a b13d 7b6c d83d d1aa 1f3d 1599 3c3d
00000100: 251a 5fbd 132e e3bd fffc 953d bf6f 0b3e
00000110: cfc0 c6bd b4ef 81bd 777e f73b a3bb 05be
00000120: 46cb e93d dcdb ba3d 0baa fc3a 81d5 113d
00000130: 588b 3f3d 8af4 abbd a4af 18bd 73a7 663d
00000140: 939c 4c3d fc83 a1bd 66bc e039 70fd acbd
00000150: 7519 0d3c 9266 99bd 9ccf d0bd 3a98 d1bd
00000160: 6c6d b63d 4193 7dbd 9cea 823d 49be ff3c
00000170: 6014 bf3c 3e24 c43d 2437 21bd f584 e03c
00000180: 08ca d63d e051 a2bd ba0f 813d 5a7d 063e
00000190: b67e babc b4f3 e33d 32fb cebc 60af debd
000001a0: 0dcd cfbd 6d14 c33c 4f41 2bbd 56a4 983b
000001b0: aafe 0dbd a1fd 053d 105d 423c c07e d33d
000001c0: 5c28 bfbd 9a9d cdbd 2fe6 d33b 30e3 653d
000001d0: 2cc2 a7bd 9884 fc3c cf03 c73c 7028 94bd
000001e0: 288e dabd 666c 83bd 54f0 503c aa48 fa3d
000001f0: da6c efbc cd57 08be 502d 933c 78c7 84bd
00000200: 616c 96bd 9eed 1b3d 6421 aa3d 2c06 adbd
00000210: d168 c43d 0c3b 8ebd f384 c1bd e1c5 a63d
00000220: 29e1 a0bd fe04 83bd fc01 80bd f127 a43d
00000230: ea7b e6bc f6b6 d93d b049 b63d 9b24 ccbc
00000240: 4283 a8bd 85c4 603d 16f9 8abd da57 5cbc
00000250: 36f7 003e 0f3d cdbd ac7c 4fbd 05ef e6bd
00000260: 1695 ae3a f679 813d 3254 80bb 80d3 86bd
00000270: 0636 67bd 5568 ebbd ece3 b83d c2ee 103d
00000280: 0a4c 683d 3852 2fbc 7c15 d53d 9677 1c3d
00000290: d27b 9cbd 453f 823d ef21 83bc 0a87 8bbd
000002a0: a09c c8bc e602 743c 94ef a03d 0f5f b33d
000002b0: 4265 04bd fb88 a93b c9d0 f53d add1 bfbd
000002c0: 2bfd 763d b859 ea3b e9d2 5f3d 1bf6 b2bd
000002d0: 047a cbbd 42c1 ef3c f4a0 c9bd 086c cabd
000002e0: 2a72 ddbd 1938 22bd 1682 5a3d 70f9 dabd
000002f0: 6c9f b5bd 7c36 5c3d 6449 b1bd 0a15 0a3e
00000300: 088b 8dbd f1a6 a4bd ecd1 87bd e276 093e
00000310: bd31 493d e2a9 d83d 3036 f13d ae13 493c
00000320: fbb6 e5bd c0a7 dd3d 0b90 f83c 865a ee3c
00000330: 9ffd fb3d 5cfc 45bd 235d 27bd f7b1 743d
00000340: f716 d93d 92c3 4ebc 3ba3 c1bb c8c1 543d
00000350: 71b1 203d 2247 79bd bd12 93bd fc2c bf3c
00000360: ad43 033c 99cc 193d e6d4 f8bc 5630 4cbd
00000370: 589b 37bd ff1c ea3c daff 393d fc73 883d
00000380: 995b be3d 17d9 5ebd 1188 8a3d 6095 aabd
00000390: f98a 47bd a569 1ebd ece7 fd3c 7141 26bd
000003a0: 9d50 f43b 14c6 0bbe 2f14 093d 8fd6 c0bd
000003b0: 6e0d 063e 5216 ba3c 5be6 413d fba8 99ba
000003c0: bec9 a03d d2ab a33d 6a29 733d 2002 3b3d
000003d0: e9f3 6d3d 517e ae3d 99c1 613d 7924 c6bc
000003e0: fd0f f03d 14cf 04be f5ff 063d 707a cbbd
000003f0: 32b5 903d 4520 c8bd 5282 94bc 7ff4 923b

lstm.bias_ih_l0 f4 [256]
0.09786076 0.055413783 -0.10590521 0.07359676 0.105037935 0.089061156 0.011168324 -0.027294682
-0.0057733874 -0.0786158 -0.09332772 0.097870596 -0.10994605 -0.036546357 -0.06704146 -0.05129716
-0.053636357 -0.07666045 0.0016986718 0.11300052 0.027367325 -0.10505905 -0.057350762 -0.078105204
0.08964509 -0.052926343 0.084011465 0.09496275 0.06636064 -0.07104164 0.12817475 0.0748955
-0.047962915 0.0041329865 -0.09362225 -0.040725272 -0.005672073 -0.041580375 0.009446828 0.048370484
0.033298455 -0.04187381 0.09020445 -0.07958348 -0.077569254 0.06102759 0.005011617 0.062807664
-0.0040940763 -0.0592061 -0.022481428 0.12272559 -0.02370328 -0.08184558 0.12774016 -0.10889805
0.01845832 -0.0346081 0.04202536 0.021565067 0.075544335 -0.06592013 -0.09456364 -0.06018571
-0.107844196 0.05623847 -0.050835174 -0.010581435 -0.0976245 0.04535029 0.00937294 -0.036606874
-0.10453851 -0.034246586 0.10859896 0.054718547 0.06425301 0.09482265 -0.05467785 -0.058821347
-0.008199719 0.028275216 0.014739342 0.052711237 -0.057043362 -0.010300498 -0.035682235 -0.094214
-0.11551908 -0.06888424 -0.013699944 0.105419606 -0.069513366 0.02640471 -0.059139594 0.02445537
-0.026234455 -0.066841595 0.04341317 0.059009742 0.09365939 0.08298607 0.075866126 -0.07247194
-0.09844979 0.10120241 0.106061004 0.023589436 0.08854963 0.0068085804 0.09476932 0.110336505
0.049927544 0.028153528 0.100918025 0.04176398 -0.00908008 0.03008767 0.007896223 -0.064749055
0.13403709 0.04327878 0.046840876 0.104474634 0.03703947 0.089378506 -0.095756225 -0.048593525
-0.12572014 0.087740816 0.07252477 0.07321422 0.07690207 -0.067754574 0.081430905 -0.099614754
0.051291283 0.10154923 -0.04781606 0.060685717 0.024606237 -0.101483375 -0.0045547537 0.012514186
-0.007449492 -0.07194682 -0.07645177 0.020525169 0.014087366 0.106768824 -0.0352117 0.053643655
0.025306085 0.07323109 -0.0075089294 -0.05771842 0.1288065 0.10242749 0.034654155 -0.08269417
-0.10380774 -0.029715214 0.121700466 0.0072246045 -0.024699533 -0.074141726 -0.09252498 0.07662289
0.074353896 0.017345073 -0.058495015 0.07401904 0.0906888 0.1001833 -0.06875865 -0.024547018
0.09804184 0.035127647 -0.06484659 -0.014843267 0.13310799 -0.12430647 -0.12313528 -0.05963667
-0.096594416 -0.111110896 -0.06253232 0.07506765 0.031545766 -0.009112606 0.09917896 -0.017046805
0.111053444 0.086470254 -0.09818692 0.06803132 -0.057466142 0.062980264 0.093886584 -0.056801494
0.07188505 -0.08736946 0.08708638 0.054858297 -0.024932891 0.13183658 0.07141192 0.0357069
-0.07047664 0.06266686 0.098933294 0.111023016 -0.07036134 -0.00959879 0.121841654 0.09280281
0.09735163 -0.05694744 0.00139662 0.0043832054 -0.0439441 0.06009815 0.06134535 0.054910365
-0.088508874 -0.033476047 0.092839815 -0.021481933 0.13574743 0.034228858 0.045969196 -0.057575334
-0.07314355 0.08964212 -0.052880738 -0.00820139 0.002055167 0.035559922 0.018023003 -0.08800457
-0.06697669 0.11611483 -0.033462994 -0.086438276 -0.086946055 -0.061160177 0.0029835699 0.022395654
0.021127773 -0.011043874 0.026592545 0.11700949 0.11774905 -0.080361 0.115023546 -0.10662506
00000000: 396b c83d 90f9 623d d5e4 d8bd e6b9 963d
00000010: 211e d73d b265 b63d 59fb 363c 1999 dfbc
00000020: af2e bdbb 5201 a1bd 9b22 bfbd 6170 c83d
00000030: 652b e1bd a2b1 15bd 084d 89bd f91c 52bd
00000040: ccb1 5bbd 2700 9dbd f8a5 de3a d16c e73d
00000050: 7131 e03c 3329 d7bd a2e8 6abd 9ff5 9fbd
00000060: d897 b73d 4bc9 58bd 340e ac3d d57b c23d
00000070: 16e8 873d 487e 91bd 3e40 033e d062 993d
00000080: c374 44bd 016e 873b 06bd bfbd 8bcf 26bd
00000090: ccdc b9bb 2f50 2abd dec6 1a3c 2120 463d
000000a0: f663 083d df83 2bbd 1cbd b83d aafc a2bd
000000b0: a1dc 9ebd 11f8 793d 7e38 a43b 4ea1 803d
000000c0: 9a27 86bb 1882 72bd f92a b8bc 8e57 fb3d
000000d0: 622d c2bc a89e a7bd 51ce 023e f105 dfbd
000000e0: e735 973c 39c1 0dbd c922 2c3d 39a9 b03c
000000f0: fdb6 9a3d 2201 87bd 95aa c1bd 4b85 76bd
00000100: 6bdd dcbd 4f5a 663d 8b38 50bd c15d 2dbc
00000110: 5bef c7bd 3ac1 393d f690 193c 17f1 15bd
00000120: 4918 d6bd 2646 0cbd 2269 de3d 8e20 603d
00000130: 1597 833d 6132 c23d e2f5 5fbd a7ee 70bd
00000140: 1d58 06bc 6da1 e73c 487d 713c bde7 573d
00000150: 4da6 69bd 6cc3 28bc 8927 12bd 45f3 c0bd
00000160: 4495 ecbd 2e13 8dbd bb75 60bc 3ce6 d73d
00000170: 065d 8ebd b14e d83c 5c3c 72bd a156 c83c
00000180: a4e9 d6bc 3fe4 88bd 02d2 313d 33b4 713d
00000190: 7fd0 bf3d 9af4 a93d b35f 9b3d 2b6c 94bd
000001a0: 0ba0 c9bd 3643 cf3d 8336 d93d a23e c13c
000001b0: 8259 b53d 831a df3b 6b16 c23d 1bf8 e13d
000001c0: d380 4c3d 3aa2 e63c 1cae ce3d b510 2b3d
000001d0: 9ec4 14bc 6b7a f63c 295f 013c 279b 84bd
000001e0: 0541 093e 1745 313d 38dc 3f3d ccf6 d53d
000001f0: b3b6 173d 140c b73d d71b c4bd 010a 47bd
00000200: c8bc 00be 75b1 b33d de87 943d 56f1 953d
00000210: d57e 9d3d e9c2 8abd 3fc5 a63d d202 ccbd
00000220: cf16 523d 0bf9 cf3d c6da 43bd 9691 783d
00000230: 0593 c93c 84d6 cfbd 0b40 95bb 4d08 4d3c
00000240: de1a f4bb db58 93bd bf92 9cbd 6624 a83c
00000250: b2ce 663c 9da9 da3d 253a 10bd 73b9 5b3d
00000260: b54e cf3c 2ffa 953d 770d f6bb 266a 6cbd
00000270: dae5 033e 81c5 d13d 84f1 0d3d 905b a9bd
00000280: 2799 d4bd 526d f3bc 183e f93d 60bc ec3b
00000290: ad56 cabc 9ed7 97bd bd7d bdbd 76ec 9c3d
000002a0: db46 983d 4117 8e3c 7898 6fbd 4b97 973d
000002b0: 0dbb b93d e72c cd3d 56d1 8cbd d416 c9bc
000002c0: 29ca c83d 02e2 0f3d 4ace 84bd 2d31 73bc
000002d0: 764d 083e 6494 febd 5a2e fcbd 9545 74bd
000002e0: 4bd3 c5bd 1c8e e3bd f210 80bd 11bd 993d
000002f0: 2236 013d 0a4d 15bc 571e cb3d bea5 8bbc
00000300: fd6f e33d 5117 b13d 3916 c9bd 0154 8b3d
00000310: 9e61 6bbd ccfb 803d 9c47 c03d afa8 68bd
00000320: 7838 933d c2ee b2bd 585a b23d 18b3 603d
00000330: 1040 ccbc 2b00 073e 6a40 923d 6641 123d
00000340: 0e56 90bd 7c57 803d 8a9d ca3d 0960 e33d
00000350: 9b19 90bd 3e44 1dbc 1e88 f93d 660f be3d
00000360: 4b60 c73d b841 69bd ca0e b73a fea0 8f3b
00000370: bbfe 33bd 7a29 763d 4345 7b3d b1e9 603d
00000380: 2444 b5bd 2e1e 09bd cd22 be3d e1fa afbc
00000390: 6001 0b3e 8f33 0c3d 324a 3c3d 1dd4 6bbd
000003a0: 49cc 95bd 4a96 b73d 7999 58bd 1f5f 06bc
000003b0: fbaf 063b 48a7 113d faa4 933c bd3b b4bd
000003c0: 132b 89bd 9dcd ed3d 7e10 09bd 8d06 b1bd
000003d0: c610 b2bd 1883 7abd ff87 433b 1777 b73c
000003e0: 2714 ad3c 5df1 34bc 9cd8 d93c aca2 ef3d
000003f0: 6a26 f13d 4f94 a4bd 7791 eb3d 3d5e dabd

lstm.bias_hh_l0 f4 [256]
0.06186587 0.06370415 -0.12061038 -0.097900465 -0.059049543 0.09013343 0.047962733 -0.012856035
0.13363136 -0.12104124 -0.08589543 0.0007808825 -0.07871679 -0.04418368 0.044406537 0.10405651
-0.046218008 -0.012459263 -0.004857995 0.02768062 0.046464533 -0.08938118 -0.10826103 0.10577286
-0.112830415 -0.036627084 0.005653247 0.010165672 0.03641639 -0.07797806 0.079592146 -0.08280213
-0.057546534 0.09655256 -0.107054174 -0.01909837 0.113476105 0.04487059 -0.07383966 -0.010852768
0.007587272 0.06775731 0.111973524 0.09770483 0.092017435 0.07705419 -0.022400709 0.019162666
0.030879358 0.060677454 -0.07158189 0.0824904 0.10020262 -0.07301782 0.005986686 -0.061345086
0.030319134 0.07284226 -0.007915964 0.060144436 -0.11391529 -0.00035945486 -0.09660276 0.004544147
0.032440107 -0.032864396 -0.043459605 0.0045484514 -0.11154293 -0.07034773 -0.022086848 -0.09567978
-0.107205905 -0.025911018 0.037292212 0.011411103 0.045494583 -0.045391146 -0.08706016 0.017113889
-0.024746837 0.024254585 -0.003906435 -0.05287451 0.109319806 -0.057094723 0.019908622 -0.050965745
-0.054712024 0.098618574 0.11591848 0.015854027 -0.0050189807 -0.017704425 -0.052032914 -0.08555084
-0.028207308 -0.11005553 -0.110921204 -0.07113356 -0.066829674 -0.06542912 -0.06549201 0.035709064
0.0997526 -0.093996555 -0.028813887 -0.07113824 0.05592766 -0.11426743 0.068797626 0.10248611
-0.10581613 -0.08223876 -0.014536176 0.03844777 0.09602777 -0.0631944 0.1284946 0.04703329
-0.030976808 0.11973292 0.062047526 -0.026454931 0.040599138 0.10126737 -0.008580755 0.10429465
0.112105645 -0.012436102 -0.079073414 0.03342677 0.10941812 -0.022425743 0.030706463 0.030514378
0.0003608216 0.047563158 0.08503582 0.09997126 -0.0036194932 -0.03423463 0.13385434 0.042621266
-0.1330624 -0.012489674 0.057462294 -0.09583508 -0.10366413 0.062436376 0.10521621 -0.11411325
0.0358808 -0.06520653 -0.044636123 -0.084465645 -0.10216553 -0.0017458202 0.1026448 0.01329639
0.041386556 -0.10194528 -0.029176334 0.098204 0.07367404 -0.118706495 0.037015654 0.036579166
-0.028841358 -0.07490389 -0.02609108 0.006571253 0.04832346 -0.03247666 0.05283209 -0.10483262
0.08410836 -0.022175869 -0.06614692 0.08523457 -0.055689573 -0.07419586 -0.09200156 0.12274947
0.12162898 0.028879335 0.12639262 0.057023574 -0.06919768 -0.07661471 0.10794286 -0.09624019
-0.039496507 0.011513882 0.078013875 -0.09728801 -0.085494354 -0.011294962 -0.04552939 0.13166815
-0.094298854 0.09198035 -0.036231425 -0.06059078 -0.09957185 -0.0800795 0.09267983 -0.07971817
0.0859569 -0.008236301 0.058818225 -0.027482798 -0.02001486 0.08167603 0.026730243 0.09689909
0.04018238 -0.11855538 0.032761075 0.13526222 0.0031425795 0.014824608 -0.10587407 -0.06476104
-0.10909355 -0.093445174 0.121915035 -0.11832756 0.00080593093 -0.05309246 0.117485195 0.09505101
-0.009648462 0.034429844 0.015996264 0.039569087 0.092035554 0.046972632 0.01971983 -0.06562827
0.074132524 0.10631033 0.07248211 -0.09134232 -0.031492237 -0.05570286 -0.102524795 -0.011188938
-0.070712425 -0.07583984 -0.102260366 0.084927484 -0.0030732933 0.04949026 0.09878766 -0.08375802
00000000: 1167 7d3d 5277 823d 9302 f7bd 0a80 c8bd
00000010: efdd 71bd e097 b83d 9274 443d 1ea2 52bc
00000020: a9d6 083e 78e4 f7bd f1e9 afbd 23b4 4c3a
00000030: 4536 a1bd f2f9 34bd a1e3 353d 941b d53d
00000040: 184f 3dbd f021 4cbc d12f 9fbb 78c2 e23c
00000050: 9851 3e3d 7b0d b7bd f5b7 ddbd 719f d83d
00000060: a213 e7bd 4806 16bd df3e b93b eb8d 263c
00000070: 5a29 153d f6b2 9fbd 3501 a33d 2a94 a9bd
00000080: eab5 6bbd 59bd c53d 383f dbbd 2f74 9cbc
00000090: 2966 e83d 39ca 373d 3f39 97bd cfcf 31bc
000000a0: a79e f83b 58c4 8a3d 6052 e53d 7819 c83d
000000b0: a373 bc3d 96ce 9d3d b181 b7bc 06fb 9c3c
000000c0: b5f6 fc3c ec88 783d 8799 92bd baf0 a83d
000000d0: 0837 cd3d 5e8a 95bd f62b c43b fc44 7bbd
000000e0: d55f f83c 532e 953d f6b1 01bc 035a 763d
000000f0: 6b4c e9bd 3775 bcb9 abd7 c5bd 11e7 943b
00000100: ebdf 043d d19c 06bd b302 32bd 2d0b 953b
00000110: 9f70 e4bd 7812 90bd 7aef b4bc c3f3 c3bd
00000120: c58e dbbd 5843 d4bc b8bf 183d a3f5 3a3c
00000130: 8758 3a3d 11ec 39bd 994c b2bd 6d32 8c3c
00000140: e1b9 cabc 8db1 c63c 8d01 80bb f192 58bd
00000150: 10e3 df3d 28dc 69bd 6817 a33c 75c1 50bd
00000160: b719 60bd 89f8 c93d ab66 ed3d 4ee0 813c
00000170: 4376 a4bb df08 91bc 7720 55bd 4735 afbd
00000180: 0313 e7bc cb64 e1bd a82a e3bd 79ae 91bd
00000190: ffdd 88bd b4ff 85bd ad20 86bd ab43 123d
000001a0: 174b cc3d 4481 c0bd 1a0b ecbc edb0 91bd
000001b0: 6714 653d 0b05 eabd c5e5 8c3d 3de4 d13d
000001c0: 21b6 d8bd cc6c a8bd 2429 6ebc 697b 1d3d
000001d0: 35aa c43d 116c 81bd 1794 033e fba5 403d
000001e0: 13c3 fdbc 8836 f53d 8c25 7e3d 03b8 d8bc
000001f0: 484b 263d 4465 cf3d 4c96 0cbc 6f98 d53d
00000200: a597 e53d cbc0 4bbc 3ef1 a1bd 82ea 083d
00000210: 9b16 e03d 31b6 b7bc 1f8c fb3c 4af9 f93c
00000220: a82c bd39 96d1 423d 4327 ae3d bbbd cc3d
00000230: 0535 6dbb 9d39 0cbd 1d11 093e a393 2e3d
00000240: 8341 08be 7da1 4cbc 955d 6b3d 2f45 c4bd
00000250: dc4d d4bd 49bd 7f3d 997b d73d 35b4 e9bd
00000260: bff7 123d 008b 85bd 5ed4 36bd 53fc acbd
00000270: 293c d1bd 01d4 e4ba 7037 d23d 1ad9 593c
00000280: f384 293d b0c8 d0bd 3503 efbc 2e1f c93d
00000290: 6ae2 963d 641c f3bd ba9d 173d 09d4 153d
000002a0: b644 ecbc 3667 99bd f6bc d5bc aa53 d73b
000002b0: d2ee 453d 3f06 05bd 7666 583d 7cb2 d6bd
000002c0: 0141 ac3d 2baa b5bc 0978 87bd 768f ae3d
000002d0: c01a 64bd 00f4 97bd 506b bcbd 1364 fb3d
000002e0: 9d18 f93d 5b94 ec3c 116d 013e 8d91 693d
000002f0: 83b7 8dbd 2ce8 9cbd 2511 dd3d 9419 c5bd
00000300: 17c7 21bd b9a4 3c3c bdc5 9f3d f03e c7bd
00000310: aa17 afbd 810e 39bc 077d 3abd 04d4 063e
00000320: c21f c1bd 3260 bc3d 6767 14bd 0a2e 78bd
00000330: 53ec cbbd b900 a4bd ecce bd3d 4843 a3bd
00000340: 2c0a b03d 8df1 06bc 61eb 703d 9b23 e1bc
00000350: 34f6 a3bc c345 a73d 62f9 da3c 0873 c63d
00000360: 4796 243d 2acd f2bd 7a30 063d 2e82 0a3e
00000370: bcf3 4d3b eae2 723c 81d4 d8bd 70a1 84bd
00000380: 706c dfbd 2f60 bfbd 97ae f93d b855 f2bd
00000390: 1c45 533a 7b77 59bd 149c f03d 1baa c23d
000003a0: 9514 1ebc 4f06 0d3d 990a 833c 3213 223d
000003b0: 237d bc3d 6066 403d 7b8b a13c 1d68 86bd
000003c0: cbd2 973d 3bb9 d93d 8071 943d af11 bbbd
000003d0: 01fe 00bd af28 64bd 85f8 d1bd cf51 37bc
000003e0: add1 90bd eb51 9bbd e26d d1bd 76ee ad3d
000003f0: 4e69 49bb 4db6 4a3d 2f51 ca3d 5389 abbd

lstm.weight_ih_l1 f4 [256, 64]
0.026054023 0.06563544 -0.061630625 -0.016242448 -0.052765924 -0.09924963 0.08570484 0.004649999
0.09612632 -0.06311968 -0.009047607 -0.099819414 0.056572203 0.022507902 -0.09916255 0.09236724
-0.015161985 -0.05271135 0.09944278 0.10767177 -0.0019665223 -0.05547669 0.10346111 0.06342748
-0.026592761 0.025368974 -0.08645705 0.023900608 0.050342053 -0.08888606 0.026063543 0.08588089
-0.07629341 -0.03280147 -0.026269529 0.02128194 -0.0096114585 0.03387018 0.09359285 0.010080731
0.027799662 -0.04414086 0.028005011 0.01567986 -0.031365585 -0.061106376 -0.071580015 0.010951712
0.08597255 0.11877075 -0.12709545 0.060964793 0.023697874 -0.04109678 0.040340435 -0.11263988
0.026192985 0.109562285 0.13236664 -0.07587704 -0.047829077 0.0029274363 0.041846685 -0.057545725
0.02946862 0.057220038 0.04850184 0.01866725 0.016483271 0.015890818 -0.10770544 -0.04075842
0.030825214 0.06371801 -0.1097268 0.048303913 0.041944403 0.104890615 0.073069535 -2.0879314e-05
-0.074382074 0.023663415 0.022936214 0.09740762 0.09232238 -0.060367268 0.04371316 -0.08026235
0.09029809 -0.02274027 0.020793548 0.12578763 0.11528301 -0.12565485 0.103050865 -0.07240463
-0.009770184 -0.07356837 -0.054106098 0.07165844 -0.1229963 -0.1052378 -0.050617844 0.018525556
0.024285275 -0.0028495546 0.05892924 0.0004764492 0.07101745 -0.0048048827 0.004171144 -0.060586415
0.024154626 0.07247275 -0.02697146 -0.02209975 -0.027723456 -0.021715308 -0.005964266 -0.12313321
0.0666869 0.0039385115 0.06180106 -0.1136507 0.05066159 -0.09851244 0.042532455 0.09640768
0.073709235 -0.0011473641 0.034841605 0.117412865 -0.07735153 -0.0835207 0.028109688 -0.11818625
-0.06571309 -0.0140524935 -0.08630406 0.11448514 0.057413835 0.063037515 -0.026995989 0.03896497
0.06832175 0.01980936 0.1223635 0.028605517 0.057926953 0.060431298 -0.03809845 -0.06395383
-0.0519995 -0.063145585 0.06260181 -0.015899396 0.086895846 0.058629014 -0.016147984 -0.07474081
-0.09562059 0.09512526 0.043259166 -0.10814731 0.090298384 -0.06416128 -0.115671426 -0.11849421
0.115458645 -0.060186166 0.11352784 0.04825852 -0.012074936 -0.03667671 0.097673394 -0.04127106
-0.0047842534 -0.11273717 0.067534275 -0.1252442 -0.089185156 -0.017109932 0.029886687 -0.071340576
0.015536562 -0.077565834 0.08936617 -0.032724865 0.09485983 -0.101871036 -0.09468748 0.011534911
0.03267494 -0.09567349 -0.108757146 -0.042918555 0.07374126 0.05344241 0.050402362 -0.07337506
0.11914991 -0.100457974 -0.056919497 0.031099722 0.06283858 -0.09213224 -0.04709075 -0.04799992
0.09089509 0.049992587 -0.006541222 -0.08060235 -0.13302028 -0.08729495 0.037787803 -0.065815575
0.1063741 0.07201523 -0.053786 -0.07182033 0.044428363 -0.040904365 0.048831034 -0.03127182
-0.06944176 -0.095952354 0.011861268 -0.08335974 -0.0072245738 0.06101078 -0.004889261 -0.10072704
-0.13288993 -0.013077974 0.028606668 0.13398577 0.1286311 -0.06158374 0.05866364 -0.097359255
-0.02068391 0.09852065 0.032346185 0.051836897 0.0044806837 -0.0018838752 0.011289213 -0.006458957
-0.05061411 0.08265341 0.03155808 0.003127032 -0.021843877 0.05712159 -0.09007306 -0.04901087
00000000: 3f6f d53c e06b 863d 6570 7cbd e20e 85bc
00000010: 1521 58bd 6443 cbbd 0586 af3d 055f 983b
00000020: e0dd c43d e444 81bd 6a3c 14bc 1f6e ccbd
00000030: 41b8 673d 7e62 b83c bc15 cbbd 092b bd3d
00000040: f969 78bc dbe7 57bd a8a8 cb3d 0483 dc3d
00000050: c5e0 00bb 873b 63bd 6be3 d33d 44e6 813d
00000060: 10d9 d9bc 98d2 cf3c 6510 b1bd 35cb c33c
00000070: 7833 4e3d e509 b6bd 3683 d53c 52e2 af3d
00000080: b83f 9cbd d65a 06bd 3233 d7bc 7757 ae3c
00000090: 6179 1dbc 75bb 0a3d 9cad bf3d a629 253c
000000a0: 1ebc e33c 0ccd 34bd c46a e53c 0d73 803c
000000b0: 3379 00bd ae4a 7abd 8b98 92bd cf6e 333c
000000c0: 6012 b03d 143e f33d 4f25 02be 38b6 793d
000000d0: 0b22 c23c 1955 28bd 033c 253d bdaf e6bd
000000e0: ac92 d63c 3162 e03d 1f8b 073e 6c65 9bbd
000000f0: 6ce8 43bd 3bda 3f3b 6e67 2b3d 11b5 6bbd
00000100: 2d68 f13c 8f5f 6a3d dea9 463d 10ec 983c
00000110: ed07 873c 762d 823c ab94 dcbd 4df2 26bd
00000120: 2985 fc3c 977e 823d 72b8 e0bd 53da 453d
00000130: e5cd 2b3d e4d0 d63d 7ba5 953d fc25 afb7
00000140: a155 98bd c7d9 c13c bae4 bb3c a57d c73d
00000150: 8413 bd3d ab43 77bd 920c 333d 9660 a4bd
00000160: 34ee b83d cd49 babc 3b57 aa3c 79ce 003e
00000170: 8019 ec3d aaab 00be 550c d33d e148 94bd
00000180: 1f13 20bc 03ab 96bd 5b9e 5dbd a9c1 923d
00000190: 7ce5 fbbd ea86 d7bd a854 4fbd e8c2 973c
000001a0: eaf1 c63c 98bf 3abb c95f 713d eecb f939
000001b0: 9971 913d 4772 9dbb 18ae 883b 7629 78bd
000001c0: ecdf c53c 986c 943d 40f3 dcbc 890a b5bc
000001d0: 4d1c e3bc 4de4 b1bc e46f c3bb 442d fcbd
000001e0: 2493 883d a10e 813b 1c23 7d3d b3c1 e8bd
000001f0: 8782 4f3d e4c0 c9bd 8336 2e3d 6471 c53d
00000200: def4 963d 2763 96ba 12b6 0e3d 2876 f03d
00000210: 7b6a 9ebd e70c abbd 4a46 e63c a20b f2bd
00000220: 9694 86bd 6e3c 66bc 2fc0 b0bd 2f77 ea3d
00000230: c52a 6b3d d019 813d b126 ddbc bb99 1f3d
00000240: 46ec 8b3d 3d47 a23c b799 fa3d 1e56 ea3c
00000250: d044 6d3d cf86 773d 1f0d 1cbd 3afa 82bd
00000260: 6dfd 54bd 7952 81bd 6135 803d 733f 82bc
00000270: 73f6 b13d fa24 703d c748 84bc b611 99bd
00000280: bad4 c3bd 08d1 c23d 8630 313d 567c ddbd
00000290: 5cee b83d fd66 83bd 24e5 ecbd 18ad f2bd
000002a0: 9575 ec3d c585 76bd 4981 e83d baaa 453d
000002b0: f4d5 45bc 513a 16bd fd08 c83d d80b 29bd
000002c0: 3ac5 9cbb bfe2 e6bd 694f 8a3d 0440 00be
000002d0: b5a6 b6bd 212a 8cbc edd4 f43c 021b 92bd
000002e0: 108d 7e3c d6da 9ebd 9c05 b73d 820a 06bd
000002f0: df45 c23d c3a1 d0bd 82eb c1bd ecfc 3c3c
00000300: 28d6 053d 76f0 c3bd 11bc debd 5ecb 2fbd
00000310: a805 973d 6ee6 5a3d b572 4e3d aa45 96bd
00000320: de04 f43d e9bc cdbd 6b24 69bd d8c4 fe3c
00000330: 83b1 803d d4af bcbd 3be2 40bd 909b 44bd
00000340: 3427 ba3d 07c5 4c3d bf57 d6bb d812 a5bd
00000350: 7836 08be b2c7 b2bd 62c7 1a3d 51ca 86bd
00000360: aada d93d b97c 933d b54e 5cbd 8a16 93bd
00000370: 84fa 353d 568b 27bd 0d03 483d e116 00bd
00000380: 7b37 8ebd ab82 c4bd c455 423c 83b8 aabd
00000390: 1ebc ecbb 71e6 793d 1836 a0bb fa49 cebd
000003a0: 4c14 08be 0045 56bc 8858 ea3c 9133 093e
000003b0: dfb7 033e 3b3f 7cbd 4949 703d 4a64 c7bd
000003c0: 4e71 a9bc 32c5 c93d 6f7d 043d ed52 543d
000003d0: b3d2 923b 5dec f6ba 64f6 383c a9a5 d3bb
000003e0: be50 4fbd 3146 a93d 0c43 013d e4ee 4c3b
000003f0: eef1 b2bc 54f8 693d 3978 b8bd 9fbf 48bd

lstm.weight_hh_l1 f4 [256, 64]
-0.10470588 -0.11825003 -0.030658437 0.061300084 0.009792063 0.028734848 0.049739867 0.044196602
-0.0097802365 -0.0608558 0.06788334 0.032543607 -0.024160616 0.10954558 0.020746898 -0.089845575
0.07250673 0.09948925 0.013298604 -0.12289785 -0.03166534 0.12067525 -0.100313365 -0.05896132
-0.02995576 0.023729041 -0.09739824 -0.10600759 -0.093444295 -0.13461158 0.044097383 0.086629964
-0.11468998 0.014393645 -0.09147435 0.033562504 -0.01502602 -0.048369516 0.017942892 -0.12195004
0.09248296 -0.08138333 0.062314317 0.11332784 -0.06486707 0.06602424 0.05532591 0.10359928
-0.037091177 -0.026307564 -0.119389325 -0.07500781 -0.09114671 0.017543174 0.038293336 0.09834508
-0.06569861 0.09641807 0.12570998 0.06384048 -0.02308482 -0.08224506 -0.10658565 -0.12825528
-0.06539321 0.05648348 0.04869406 -0.017093236 -0.10677445 -0.041905615 0.12021292 0.08053568
0.022935279 -0.04048847 0.014079886 -0.0013264196 0.12975769 -0.102821805 -0.07139416 -0.07748342
0.11213704 -0.06152916 0.01741433 -0.0011396462 -0.022254638 0.111156926 0.06164961 0.1165391
-0.09370098 0.022590397 -0.017355016 -0.023042342 0.03211558 0.07143643 -0.008455797 0.046872016
0.05037215 0.087948374 -0.050165728 -0.025511255 0.047544617 -0.11025334 0.05874655 0.12511158
0.111073345 -0.066937424 0.017955769 -0.05227303 -0.11409831 0.03235119 0.042979628 0.0776714
0.0063565066 0.019198427 0.111368984 0.07696178 0.039459713 0.0060608718 -0.042184092 -0.112584256
0.015659392 0.112293154 -0.08451567 -0.053940743 -0.015542258 -0.032268506 0.014294342 -0.07148549
-0.009956593 0.06339221 -0.024406422 -0.047338083 0.07258189 -0.018180102 -0.09747872 -0.08704735
0.047835972 0.08382257 0.0793872 -0.06863019 -0.0824721 0.09405242 0.057891198 -0.003130468
0.06541707 0.0357961 -0.052154426 0.12054159 0.07247444 0.024254184 0.058044314 -0.011027055
-0.088175364 -0.0023832556 -0.11000387 -0.07547971 0.12125508 0.11296044 0.08652444 -0.09393041
0.0017818005 0.0192036 -0.020469712 -0.08510667 0.09906433 0.04904949 -0.076227434 0.034697298
0.007899499 0.068721555 0.11067187 0.064659804 -0.1073845 0.08914983 -0.014868674 -0.06109003
-0.064475074 0.025704853 0.110840306 0.05550225 0.107273325 0.072506055 0.10693779 0.02042405
0.004952949 0.11649565 0.08037086 0.07662209 -0.11231209 -0.04980013 0.0026247043 -0.011537234
0.095197275 0.016047481 0.10486149 0.11540518 0.044007424 0.03057157 0.09258534 -0.04488353
-0.013314888 -0.07942785 0.00058539526 -0.06303907 -0.04095441 0.113766104 0.0875584 0.074115194
0.07795851 0.08271912 -0.014663792 0.0035083296 0.086481765 0.05623734 -0.13443153 0.01378041
-0.05079132 -0.11389523 -0.057185028 0.025594631 -0.01689909 -0.07681487 -0.089668654 0.053180665
-0.026610613 0.027384663 -0.083482854 -0.0699859 0.053967927 -0.060675018 -0.0714158 -0.11453587
-0.046611004 -0.09483789 0.11744081 -0.092350945 -0.068282984 -0.052565232 -0.039261464 0.0019962813
0.07661941 -0.08911687 0.07346075 0.041606937 0.067945234 0.063962184 -0.09272973 0.01436774
0.056772046 -0.097906664 -0.003106516 0.03723815 -0.0413696 -0.07816801 -0.013677447 -0.016583398
00000000: 0970 d6bd 122d f2bd 6727 fbbc cc15 7b3d
00000010: e46e 203c 5865 eb3c 08bc 4b3d 7f07 353d
00000020: 493d 20bc ee43 79bd 6c06 8b3d 724c 053d
00000030: 7cec c5bc 6f59 e03d 66f5 a93c f500 b8bd
00000040: 697e 943d 05c1 cb3d 63e2 593c deb1 fbbd
00000050: 84b3 01bd 9624 f73d 1871 cdbd 6d81 71bd
00000060: c865 f5bc 6863 c23c ba78 c7bd 821a d9bd
00000070: b95f bfbd 9ed7 09be 759f 343d 0d6b b13d
00000080: 95e2 eabd 53d3 6b3c e756 bbbd d678 093d
00000090: b22f 76bc 1d1f 46bd f9fc 923c f1c0 f9bd
000000a0: b567 bd3d 4eac a6bd 4c3d 7f3d 6d18 e83d
000000b0: 07d9 84bd b737 873d 6c9d 623d dc2b d43d
000000c0: ebec 17bd f682 d7bc 6482 f4bd b29d 99bd
000000d0: 20ab babd b4b6 8f3c 79d9 1c3d 2569 c93d
000000e0: fe8c 86bd d676 c53d 1eba 003e ccbe 823d
000000f0: 601c bdbc 1970 a8bd 9449 dabd 5a55 03be
00000100: e0ec 85bd 395b 673d 6c73 473d 1d07 8cbc
00000110: 90ac dabd 39a5 2bbd 3132 f63d e4ef a43d
00000120: c4e2 bb3c 3dd7 25bd 52af 663c 42db adba
00000130: 33df 043e 3d94 d2bd 1a37 92bd a1af 9ebd
00000140: 1ba8 e53d 0006 7cbd 7fa8 8e3c 2e60 95ba
00000150: 5c4f b6bc 3ea6 e33d 4d84 7c3d 0dac ee3d
00000160: 4de6 bfbd 7f0f b93c 1b2c 8ebc 4bc3 bcbc
00000170: a08b 033d 434d 923d 2f8a 0abc dffc 3f3d
00000180: 0753 4e3d 471e b43d 947a 4dbd fbfc d0bc
00000190: 25be 423d 81cc e1bd 39a0 703d 401d 003e
000001a0: 6c7a e33d 7d16 89bd fa17 933c 3f1c 56bd
000001b0: 60ac e9bd ae82 043d 680b 303d 2f12 9f3d
000001c0: 3e4a d03b 0546 9d3c 6c15 e43d 239e 9d3d
000001d0: 82a0 213d 479a c63b 3ac9 2cbd 9392 e6bd
000001e0: 2048 803c f4f9 e53d 8d16 adbd f8f0 5cbd
000001f0: f4a4 7ebc fb2b 04bd d132 6a3c fc66 92bd
00000200: fa20 23bc c6d3 813d faef c7bc 94e5 41bd
00000210: d0a5 943d 70ee 94bc eca2 c7bd e245 b2bd
00000220: a7ef 433d 2bab ab3d c295 a23d fc8d 8cbd
00000230: 22e7 a8bd 8e9e c03d 521f 6d3d 8a28 4dbb
00000240: 63f9 853d ee9e 123d e19f 55bd 82de f63d
00000250: 7b6d 943d b6b0 c63c e0bf 6d3d d2aa 34bc
00000260: 4995 b4bd 6530 1cbb b649 e1bd 1b95 9abd
00000270: 9554 f83d ce57 e73d ba33 b13d 965e c0bd
00000280: 4e8b e93a de50 9d3c 19b0 a7bc 684c aebd
00000290: 3de2 ca3d 1ee8 483d 211d 9cbd c11e 0e3d
000002a0: e66c 013c e3bd 8c3d efa7 e23d 5c6c 843d
000002b0: 68ec dbbd 3094 b63d bd9b 73bc 8a39 7abd
000002c0: 820b 84bd fc92 d23c 3e00 e33d 5456 633d
000002d0: 1eb2 db3d 0e7e 943d 3302 db3d 5650 a73c
000002e0: 594c a23b 4595 ee3d 7a99 a43d 0bec 9c3d
000002f0: e203 e6bd 39fb 4bbd 3b03 2c3b ab06 3dbc
00000300: caf6 c23d 0276 833c 9fc1 d63d 8d59 ec3d
00000310: 2141 343d 3b71 fa3c 629d bd3d cbd7 37bd
00000320: b026 5abc 12ab a2bd 3675 193a a11a 81bd
00000330: d0bf 27bd 34fe e83d d251 b33d b5c9 973d
00000340: b6a8 9f3d a468 a93d 6740 70bc 01ec 653b
00000350: 5a1d b13d 2059 663d 6ba8 09be 3bc7 613c
00000360: 8f0a 50bd e741 e9bd d93a 6abd d5ab d13c
00000370: f66f 8abc 1d51 9dbd 33a4 b7bd f8d3 593d
00000380: 80fe d9bc cd55 e03c 0ff9 aabd c454 8fbd
00000390: 790d 5d3d 5e86 78bd 7242 92bd c891 eabd
000003a0: 2eeb 3ebd 5e3a c2bd cf84 f03d 7e22 bdbd
000003b0: f3d7 8bbd a44e 57bd a1d0 20bd 0bd4 023b
000003c0: a3ea 9c3d e882 b6bd 9772 963d 096c 2a3d
000003d0: df26 8b3d 9bfe 823d 16e9 bdbd ab66 6b3c
000003e0: ce89 683d 4a83 c8bd b196 4bbb 0887 183d
000003f0: 2b73 29bd 8d16 a0bd 5f17 60bc e8d9 87bc

lstm.bias_ih_l1 f4 [256]
-0.017914554 -0.021484464 -0.02296791 0.058712814 -0.038229555 -0.06862652 0.06755258 -0.033140015
-0.09753426 -0.10686824 -0.09440648 -0.10200467 0.04684764 -0.031332295 -0.05840544 -0.06560802
0.033155028 -0.008818205 0.031327557 0.021098802 0.09579997 -0.054415714 0.003125321 0.084295906
0.023266459 -0.07711927 -0.075839475 -0.10678462 0.117508434 0.06278234 -0.025812304 0.094424225
-0.11916093 0.046235453 0.06174726 -0.109299205 -0.015749684 -0.0051284814 0.0703586 0.10944693
-0.05153635 -0.06236477 -0.08221066 -0.020772904 0.0928378 -0.119159915 -0.045387175 -0.001446913
-0.083683014 -0.109483115 0.039056834 -0.020768268 0.043512966 0.06511354 -0.06500682 0.07509475
0.031901136 -0.095286615 -0.11076853 0.05406081 -0.015673587 0.12327829 0.11688268 0.06532505
0.082376465 -0.106773354 -0.082484506 0.12708911 -0.06950841 -0.09158002 -0.034072056 0.08699007
0.11847913 -0.030714748 0.073429994 0.114155225 -0.04376596 -0.032999054 -0.0910712 0.033529207
0.0063021 0.06534211 -0.07434722 -0.03371707 0.08725406 -0.06212208 -0.05251338 0.031520266
0.10379493 -0.022760691 -0.07317457 0.098307624 0.08708946 -0.09016048 -0.061695572 -0.05398323
-0.09915471 -0.049302362 0.07506598 -0.011663262 -0.08516733 0.018787634 0.12683903 -0.052579287
0.047051746 0.020560758 -0.057813805 -0.035843 0.01982324 -0.06506621 -0.0925502 -0.07899202
-0.067450136 -0.075926095 0.026541544 0.11947803 0.11203805 -0.08970502 -0.09979254 0.11404437
0.043064218 -0.09256058 -0.101148516 0.050575 0.10859361 -0.052522995 -0.05162659 -0.026093436
0.10230612 -0.007858859 0.04427625 -0.11213904 0.0008344197 -0.1315199 -0.04744834 -0.08087093
0.13499482 0.06517821 0.077079296 0.01382858 0.1126323 -0.038424674 -0.11206769 0.003766843
0.06854764 0.110831566 0.019920334 -0.028782705 0.106825605 -0.06559077 0.07495168 0.077516995
-0.0047370396 -0.03764378 0.13002123 -0.018048942 -0.05056662 -0.0964406 -0.1316414 0.06262501
0.104869135 0.08917984 -0.055695936 -0.0679608 0.022713209 -0.08639225 0.005738712 -0.11485376
0.056343175 0.050940543 0.13190144 0.014227678 0.0010493023 0.066194914 0.03955728 0.023995144
-0.11877518 -0.04515364 -0.08179604 -0.1277747 0.078499585 0.09275019 -0.029677058 0.06993555
0.015590759 0.10596132 0.07205611 0.0024437082 -0.036738843 0.027799254 -0.11733883 0.06362061
0.05804585 -0.009013972 -0.07219007 -0.059796754 0.03939879 0.028562035 -0.031607132 -0.073211595
-0.07508288 0.006963722 -0.00999651 0.04155745 -0.038550556 -0.046732157 -0.072923705 -0.11976358
-0.017377863 -0.0491328 0.0007844225 -0.039842613 -0.028923878 -0.065051 0.11507492 0.088499926
-0.117753565 0.06827047 0.07838797 0.07844641 0.02099943 -0.06546045 0.013590104 0.00034762642
0.0106740175 -0.105656765 -0.05111117 -0.06573193 0.13482213 -0.08474783 0.12860082 -0.08493594
-0.075695075 -0.024156462 0.0010900771 0.0335984 0.0783778 0.039129287 -0.06458087 -0.043476976
0.011137847 0.084095284 0.023520939 -0.093419984 -0.05523922 0.11770105 0.10390652 -0.06803015
0.010022469 0.0100296885 -0.029119035 0.009398018 0.030545777 0.069583386 0.013831442 0.09682597
00000000: 8bc1 92bc 3000 b0bc 3327 bcbc d97c 703d
00000010: 9896 1cbd 108c 8cbd 0259 8a3d d3bd 07bd
00000020: 0bc0 c7bd bcdd dabd 2f58 c1bd d3e7 d0bd
00000030: 50e3 3f3d 4b56 00bd 8b3a 6fbd 7f5d 86bd
00000040: 91cd 073d 3c7a 10bc 5351 003d 65d7 ac3c
00000050: c632 c43d 03e3 5ebd 2fd2 4c3b 55a3 ac3d
00000060: 4d99 be3c b5f0 9dbd ba51 9bbd e5b1 dabd
00000070: 43a8 f03d 0794 803d 5374 d3bc 7d61 c13d
00000080: a50a f4bd 6361 3d3d b2ea 7c3d 43d8 dfbd
00000090: 7b05 81bc d20c a8bb 2b18 903d b625 e03d
000000a0: c817 53bd 3372 7fbd 105e a8bd f02b aabc
000000b0: bf21 be3d 1d0a f4bd e7e7 39bd 58a6 bdba
000000c0: 0062 abbd af38 e0bd 0ffa 1f3d 3722 aabc
000000d0: a73a 323d 3f5a 853d 4c22 85bd 47cb 993d
000000e0: c4aa 023d a125 c3bd 9cda e2bd de6e 5d3d
000000f0: e565 80bc 5479 fc3d 3060 ef3d 24c9 853d
00000100: feb4 a83d fdab dabd a3ed a8bd a623 023e
00000110: 6d5a 8ebd 4e8e bbbd 248f 0bbd da27 b23d
00000120: 30a5 f23d 7f9d fbbc 7762 963d 37ca e93d
00000130: ef43 33bd 042a 07bd 8a83 babd ec55 093d
00000140: d981 ce3b 16d2 853d 5b43 98bd e91a 0abd
00000150: 42b2 b23d b973 7ebd 4518 57bd 651b 013d
00000160: 7092 d43d a174 babc 8ddc 95bd 8255 c93d
00000170: f55b b23d 0fa6 b8bd 7fb4 7cbd 851d 5dbd
00000180: a011 cbbd 46f1 49bd 31bc 993d 4417 3fbc
00000190: 366c aebd 86e8 993c 17e2 013e 615d 57bd
000001a0: 55b9 403d 096f a83c 2bce 6cbd 1cd0 12bd
000001b0: 5964 a23c 6f41 85bd f68a bdbd 91c6 a1bd
000001c0: 4c23 8abd 247f 9bbd a76d d93c e6b0 f43d
000001d0: 3574 e53d 44b7 b7bd 0860 ccbd 1890 e93d
000001e0: 1b64 303d 6790 bdbd f426 cfbd bb27 4f3d
000001f0: 5466 de3d 5a22 57bd 6776 53bd e7c1 d5bc
00000200: df85 d13d 72c2 00bc 035b 353d 27a9 e5bd
00000210: f5bc 5a3a 27ad 06be 3159 42bd a89f a5bd
00000220: 153c 0a3e 277c 853d c0db 9d3d 4591 623c
00000230: c3ab e63d 3163 1dbd bf83 e5bd 23dd 763b
00000240: b562 8c3d a9fb e23d f82f a33c b5c9 ebbc
00000250: 62c7 da3d 7454 86bd 4480 993d 3bc1 9e3d
00000260: 2b39 9bbb 5d30 1abd 4924 053e 60db 93bc
00000270: f21e 4fbd a682 c5bd 01cd 06be 8b41 803d
00000280: a1c5 d63d eca3 b63d 6c21 64bd 082f 8bbd
00000290: 0d11 ba3c 6cee b0bd ce0b bc3b 7338 ebbd
000002a0: 1ac8 663d 08a7 503d 2c11 073e 351b 693c
000002b0: be88 893a 3391 873d d006 223d 7791 c43c
000002c0: 6740 f3bd 06f3 38bd af84 a7bd 5fd7 02be
000002d0: 64c4 a03d d0f3 bd3d 4d1d f3bc 5f3a 8f3d
000002e0: 6270 7f3c 4002 d93d 2792 933d 9f26 203b
000002f0: 787b 16bd 43bb e33c 574f f0bd 864b 823d
00000300: 7cc1 6d3d 57af 13bc 63d8 93bd 71ed 74bd
00000310: a060 213d eefa e93c 7b76 01bd f6ef 95bd
00000320: 0ec5 99bd ef2f e43b 67c8 23bc 2538 2a3d
00000330: 30e7 1dbd 386a 3fbd 0659 95bd 9c46 f5bd
00000340: 055c 8ebc 7a3f 49bd b4a1 4d3a 0232 23bd
00000350: c5f1 ecbc 7539 85bd 66ac eb3d 733f b53d
00000360: c828 f1bd 63d1 8b3d df89 a03d 83a8 a03d
00000370: ff06 ac3c 2110 86bd 07a9 5e3c a141 b639
00000380: 13e2 2e3c 9362 d8bd f259 51bd 769e 86bd
00000390: d00e 0a3e 4590 adbd efaf 033e e5f2 adbd
000003a0: 0506 9bbd c6e3 c5bc ebe0 8e3a 7a9e 093d
000003b0: 8a84 a03d 0846 203d fa42 84bd ea14 32bd
000003c0: 847b 363c 263a ac3d fcae c03c fa52 bfbd
000003d0: 8542 62bd 400d f13d f1cc d43d 6453 8bbd
000003e0: 4835 243c 9053 243c 0b8b eebc 25fa 193c
000003f0: 233b fa3c bc81 8e3d 469d 623c b24c c63d
